…
131.9s 20861 /opt/conda/lib/python3.10/site-packages/torch/utils/data/dataloader.py:557: UserWarning: This DataLoader will create 6 worker processes in total. Our suggested max number of worker in current system is 4, which is smaller than what this DataLoader is going to create. Please be aware that excessive worker creation might get DataLoader running slow or even freeze, lower the worker number to avoid potential slowness/freeze if necessary.
131.9s 20862 warnings.warn(_create_warning_msg(
132.3s 20863 Model:
132.3s 20864 DataParallel(
132.3s 20865 (module): Model(
132.3s 20866 (FeatureExtraction): VGG_FeatureExtractor(
132.3s 20867 (ConvNet): Sequential(
132.3s 20868 (0): Conv2d(1, 32, kernel_size=(3, 3), stride=(1, 1), padding=(1, 1))
132.3s 20869 (1): ReLU(inplace=True)
132.3s 20870 (2): MaxPool2d(kernel_size=2, stride=2, padding=0, dilation=1, ceil_mode=False)
132.3s 20871 (3): Conv2d(32, 64, kernel_size=(3, 3), stride=(1, 1), padding=(1, 1))
132.3s 20872 (4): ReLU(inplace=True)
132.3s 20873 (5): MaxPool2d(kernel_size=2, stride=2, padding=0, dilation=1, ceil_mode=False)
132.3s 20874 (6): Conv2d(64, 128, kernel_size=(3, 3), stride=(1, 1), padding=(1, 1))
132.3s 20875 (7): ReLU(inplace=True)
132.3s 20876 (8): Conv2d(128, 128, kernel_size=(3, 3), stride=(1, 1), padding=(1, 1))
132.3s 20877 (9): ReLU(inplace=True)
132.3s 20878 (10): MaxPool2d(kernel_size=(2, 1), stride=(2, 1), padding=0, dilation=1, ceil_mode=False)
132.3s 20879 (11): Conv2d(128, 256, kernel_size=(3, 3), stride=(1, 1), padding=(1, 1), bias=False)
132.3s 20880 (12): BatchNorm2d(256, eps=1e-05, momentum=0.1, affine=True, track_running_stats=True)
132.3s 20881 (13): ReLU(inplace=True)
132.3s 20882 (14): Conv2d(256, 256, kernel_size=(3, 3), stride=(1, 1), padding=(1, 1), bias=False)
132.3s 20883 (15): BatchNorm2d(256, eps=1e-05, momentum=0.1, affine=True, track_running_stats=True)
132.3s 20884 (16): ReLU(inplace=True)
132.3s 20885 (17): MaxPool2d(kernel_size=(2, 1), stride=(2, 1), padding=0, dilation=1, ceil_mode=False)
132.3s 20886 (18): Conv2d(256, 256, kernel_size=(2, 2), stride=(1, 1))
132.3s 20887 (19): ReLU(inplace=True)
132.3s 20888 )
132.3s 20889 )
132.3s 20890 (AdaptiveAvgPool): AdaptiveAvgPool2d(output_size=(None, 1))
132.3s 20891 (SequenceModeling): Sequential(
132.3s 20892 (0): BidirectionalLSTM(
132.3s 20893 (rnn): LSTM(256, 256, batch_first=True, bidirectional=True)
132.3s 20894 (linear): Linear(in_features=512, out_features=256, bias=True)
132.3s 20895 )
132.3s 20896 (1): BidirectionalLSTM(
132.3s 20897 (rnn): LSTM(256, 256, batch_first=True, bidirectional=True)
132.3s 20898 (linear): Linear(in_features=512, out_features=256, bias=True)
132.3s 20899 )
132.3s 20900 )
132.3s 20901 (Prediction): Linear(in_features=256, out_features=70, bias=True)
132.3s 20902 )
132.3s 20903 )
132.3s 20904 Modules, Parameters
132.3s 20905 module.FeatureExtraction.ConvNet.0.weight 288
132.3s 20906 module.FeatureExtraction.ConvNet.0.bias 32
132.3s 20907 module.FeatureExtraction.ConvNet.3.weight 18432
132.3s 20908 module.FeatureExtraction.ConvNet.3.bias 64
132.3s 20909 module.FeatureExtraction.ConvNet.6.weight 73728
…
